iris_model.pt (torch, 2607 bytes, 6 tensors)

fc1.weight f4 [8, 4]
00000000: d850 e73d a7c5 09bf 3214 983e 2449 b7be
00000010: 98cd a4bc c86a e9be 70d8 073f d004 6f3f
00000020: 938f 9d3e 56c1 8fbe 7806 5f3f 4921 4d3f
00000030: 02de fb3e d526 10bf 8e68 373e 5d86 743f
00000040: 5137 133f d9c3 44be 2b60 59bf 226b 05bf
00000050: 4b96 62bf cf43 593f aced 13bf 4604 42be
00000060: 2fb9 c33e a2d9 19bf bb81 88bc 120a 053f
00000070: 771c 50bf 078b aa3e 3ce2 4fbe 24a7 45bf
0.112947166 -0.5381722 0.29702908 -0.3579799 -0.020117566 -0.4558928 0.5306463 0.9336672
0.307736 -0.2807719 0.87119246 0.80128914 0.49192816 -0.5630925 0.17910978 0.9551752
0.5750628 -0.19215335 -0.84912366 -0.52116597 -0.8851058 0.8486909 -0.57784534 -0.18946943
0.3822722 -0.60097706 -0.016663423 0.5196849 -0.81293434 0.33309194 -0.20301145 -0.7720816

fc1.bias f4 [8]
00000000: 28fb 0d3f 1ba9 e8be ff93 c3be 41e5 273f
00000010: 0ad8 933f 9833 a73d f6bb 803f 6235 7c3e
0.5546136 -0.45441517 -0.3819885 0.6558419 1.1550305 0.081641376 1.0057361 0.24629739

fc2.weight f4 [9, 8]
00000000: 5750 af3d aaa3 b03d a062 2fbc 1633 c7be
00000010: c76e 8b3e ce1c 11be e10e 393e 2d4e 8bbe
00000020: b0c5 13bd 2730 9b3e 1e13 9dbe e08e 5f3c
00000030: 8023 97bb cab6 9abe 7042 8cbd 4aed a5be
00000040: 6454 2abd 6825 5c3f 05a8 3a3f 43ed 813e
00000050: 56f0 1ebf 8155 de3e acce 15be 1ff1 063f
00000060: c213 953e d802 41be 7643 ca3e 02b1 b93e
00000070: 44ae 9f3e ff8d abbe 4690 6a3f 16a2 1cbe
00000080: c1f0 9c3d 6757 823f 54c3 3a3f 3b8b 163f
00000090: 9929 92bf 738e f93e 9ce4 863d 2839 023f
000000a0: d5a7 f83e 86c8 3e3f 15ae 113f 392c ec3e
000000b0: 0626 b4be 5843 e6bd a5cd 233f 5976 2fbe
000000c0: fa5d 1d3f a460 7ebe 2d00 473e b87a 243f
000000d0: 779f 063f 4b64 5fbf a9e9 363f 73f2 cabd
000000e0: 4f56 5abd 470a 38be 59be c83d c333 f0be
000000f0: 8c94 0f3f 046c 323f aade 08be 4979 323f
00000100: 5c99 3b3e 571d 25bf db46 65bf e0c1 3cbc
00000110: 438f 363f d2bb f13e 5b14 3a3f de79 513f
0.085602455 0.086249664 -0.010704666 -0.38906163 0.27232954 -0.14171144 0.18072082 -0.2720808
-0.0360772 0.30310175 -0.30678648 0.013644904 -0.004612386 -0.30217582 -0.068486094 -0.324076
-0.041584387 0.8599458 0.7291263 0.2537633 -0.62085474 0.4342461 -0.1462962 0.5271167
0.29116637 -0.18848741 0.39504594 0.3626786 0.31187642 -0.33506772 0.91626394 -0.15296206
0.07663108 1.0182923 0.729543 0.588062 -1.1418945 0.48741493 0.065865725 0.50868464
0.48565546 0.74524724 0.56906253 0.4612749 -0.3518526 -0.112433136 0.63985664 -0.1713499
0.6147152 -0.24841553 0.19433661 0.64249754 0.52587074 -0.8726241 0.7145029 -0.09909525
-0.053304967 -0.1797267 0.09801931 -0.4691449 0.5608604 0.6969607 -0.1336619 0.69716316
0.1832022 -0.64497894 -0.8956124 -0.011520833 0.7131235 0.47213608 0.7268731 0.8182658

fc2.bias f4 [9]
00000000: 2c54 d0be 3c08 52be 93aa a93d 720e 8e3e
00000010: bc5f f1be 1cf8 51be cde5 be3e 3dc8 903c
00000020: 2c9c 513f
-0.40689218 -0.20510954 0.082844876 0.27745396 -0.47143352 -0.20504802 0.372847 0.017673606
0.81878924

out.weight f4 [3, 9]
00000000: 673f bebd 2cb0 d2bd 3b87 8c3e 9882 9cbe
00000010: 7246 883e 17f8 04bf dd2f 3abf 2864 373f
00000020: 8d8a 973e 5fbc 7c3d 3a1e 81be da4f 72bf
00000030: c3ac 0b3f 73b8 76bf 3f06 283e e461 3d3f
00000040: 813b d6be f7dd 823e 23fa 8abd 63e5 833e
00000050: eaf7 2f3f c433 683e 31cd 7b3f 5343 183f
00000060: ff04 183e 2b26 2fbf 8ebd 73bf
-0.09289437 -0.10287508 0.27446923 -0.30568385 0.26616246 -0.51941055 -0.72729284 0.716372
0.29597893 0.061703082 -0.25218374 -0.94653094 0.5456049 -0.963752 0.16408633 0.73977494
-0.41842273 0.2555997 -0.06785991 0.25760946 0.6873766 0.22675997 0.9835997 0.5947773
0.14845656 -0.68417615 -0.9521111

out.bias f4 [3]
00000000: bca1 df3e 78e7 2f3f b448 11bf
0.4367808 0.6871257 -0.5675156
